…
[INFO] 2021-04-17 04:37:11 tag=yolo2_voc
[INFO] 2021-04-17 04:37:11 test_set=None
[INFO] 2021-04-17 04:37:11 transform=yolo2
[INFO] 2021-04-17 04:37:11 tta=False
[INFO] 2021-04-17 04:37:11 tta_x8=False
[INFO] 2021-04-17 04:37:11 val_set=None
[INFO] 2021-04-17 04:37:11 vis=False
[INFO] 2021-04-17 04:37:11 wbf_thresh=0.5
[INFO] 2021-04-17 04:37:11 weights=pretrained/darknet19_448.conv.23
[INFO] 2021-04-17 04:37:11 width=544
[INFO] 2021-04-17 04:37:11 workers=4
[INFO] 2021-04-17 04:37:11 ===========================================
[INFO] 2021-04-17 04:37:14 Darknet(
  (models): ModuleList(
    (0): Sequential(
      (conv1): Conv2d(3, 32, kernel_size=(3, 3), stride=(1, 1), padding=(1, 1), bias=False)
      (bn1): BatchNorm2d(32, eps=1e-05, momentum=0.1, affine=True, track_running_stats=True)
      (leaky1): LeakyReLU(negative_slope=0.1, inplace=True)
    )
    (1): MaxPool2d(kernel_size=2, stride=2, padding=0, dilation=1, ceil_mode=False)
    (2): Sequential(
      (conv2): Conv2d(32, 64, kernel_size=(3, 3), stride=(1, 1), padding=(1, 1), bias=False)
      (bn2): BatchNorm2d(64, eps=1e-05, momentum=0.1, affine=True, track_running_stats=True)
      (leaky2): LeakyReLU(negative_slope=0.1, inplace=True)
    )
    (3): MaxPool2d(kernel_size=2, stride=2, padding=0, dilation=1, ceil_mode=False)
    (4): Sequential(
      (conv3): Conv2d(64, 128, kernel_size=(3, 3), stride=(1, 1), padding=(1, 1), bias=False)
      (bn3): BatchNorm2d(128, eps=1e-05, momentum=0.1, affine=True, track_running_stats=True)
      (leaky3): LeakyReLU(negative_slope=0.1, inplace=True)
    )
    (5): Sequential(
      (conv4): Conv2d(128, 64, kernel_size=(1, 1), stride=(1, 1), bias=False)
      (bn4): BatchNorm2d(64, eps=1e-05, momentum=0.1, affine=True, track_running_stats=True)
      (leaky4): LeakyReLU(negative_slope=0.1, inplace=True)
    )
    (6): Sequential(
      (conv5): Conv2d(64, 128, kernel_size=(3, 3), stride=(1, 1), padding=(1, 1), bias=False)
      (bn5): BatchNorm2d(128, eps=1e-05, momentum=0.1, affine=True, track_running_stats=True)
      (leaky5): LeakyReLU(negative_slope=0.1, inplace=True)
    )
    (7): MaxPool2d(kernel_size=2, stride=2, padding=0, dilation=1, ceil_mode=False)
    (8): Sequential(
      (conv6): Conv2d(128, 256, kernel_size=(3, 3), stride=(1, 1), padding=(1, 1), bias=False)
      (bn6): BatchNorm2d(256, eps=1e-05, momentum=0.1, affine=True, track_running_stats=True)
      (leaky6): LeakyReLU(negative_slope=0.1, inplace=True)
    )
    (9): Sequential(
      (conv7): Conv2d(256, 128, kernel_size=(1, 1), stride=(1, 1), bias=False)
      (bn7): BatchNorm2d(128, eps=1e-05, momentum=0.1, affine=True, track_running_stats=True)
      (leaky7): LeakyReLU(negative_slope=0.1, inplace=True)
    )
    (10): Sequential(
      (conv8): Conv2d(128, 256, kernel_size=(3, 3), stride=(1, 1), padding=(1, 1), bias=False)
      (bn8): BatchNorm2d(256, eps=1e-05, momentum=0.1, affine=True, track_running_stats=True)
      (leaky8): LeakyReLU(negative_slope=0.1, inplace=True)
    )
    (11): MaxPool2d(kernel_size=2, stride=2, padding=0, dilation=1, ceil_mode=False)
    (12): Sequential(
      (conv9): Conv2d(256, 512, kernel_size=(3, 3), stride=(1, 1), padding=(1, 1), bias=False)
      (bn9): BatchNorm2d(512, eps=1e-05, momentum=0.1, affine=True, track_running_stats=True)
      (leaky9): LeakyReLU(negative_slope=0.1, inplace=True)
    )
    (13): Sequential(
      (conv10): Conv2d(512, 256, kernel_size=(1, 1), stride=(1, 1), bias=False)
      (bn10): BatchNorm2d(256, eps=1e-05, momentum=0.1, affine=True, track_running_stats=True)
      (leaky10): LeakyReLU(negative_slope=0.1, inplace=True)
    )
    (14): Sequential(
      (conv11): Conv2d(256, 512, kernel_size=(3, 3), stride=(1, 1), padding=(1, 1), bias=False)
      (bn11): BatchNorm2d(512, eps=1e-05, momentum=0.1, affine=True, track_running_stats=True)
      (leaky11): LeakyReLU(negative_slope=0.1, inplace=True)
    )
    (15): Sequential(
      (conv12): Conv2d(512, 256, kernel_size=(1, 1), stride=(1, 1), bias=False)
      (bn12): BatchNorm2d(256, eps=1e-05, momentum=0.1, affine=True, track_running_stats=True)
      (leaky12): LeakyReLU(negative_slope=0.1, inplace=True)
    )
    (16): Sequential(
      (conv13): Conv2d(256, 512, kernel_size=(3, 3), stride=(1, 1), padding=(1, 1), bias=False)
      (bn13): BatchNorm2d(512, eps=1e-05, momentum=0.1, affine=True, track_running_stats=True)
      (leaky13): LeakyReLU(negative_slope=0.1, inplace=True)
    )
    (17): MaxPool2d(kernel_size=2, stride=2, padding=0, dilation=1, ceil_mode=False)
    (18): Sequential(
      (conv14): Conv2d(512, 1024, kernel_size=(3, 3), stride=(1, 1), padding=(1, 1), bias=False)
      (bn14): BatchNorm2d(1024, eps=1e-05, momentum=0.1, affine=True, track_running_stats=True)
      (leaky14): LeakyReLU(negative_slope=0.1, inplace=True)
    )
    (19): Sequential(
      (conv15): Conv2d(1024, 512, kernel_size=(1, 1), stride=(1, 1), bias=False)
      (bn15): BatchNorm2d(512, eps=1e-05, momentum=0.1, affine=True, track_running_stats=True)
      (leaky15): LeakyReLU(negative_slope=0.1, inplace=True)
    )
    (20): Sequential(
      (conv16): Conv2d(512, 1024, kernel_size=(3, 3), stride=(1, 1), padding=(1, 1), bias=False)
      (bn16): BatchNorm2d(1024, eps=1e-05, momentum=0.1, affine=True, track_running_stats=True)
      (leaky16): LeakyReLU(negative_slope=0.1, inplace=True)
    )
    (21): Sequential(
      (conv17): Conv2d(1024, 512, kernel_size=(1, 1), stride=(1, 1), bias=False)
      (bn17): BatchNorm2d(512, eps=1e-05, momentum=0.1, affine=True, track_running_stats=True)
      (leaky17): LeakyReLU(negative_slope=0.1, inplace=True)
    )
    (22): Sequential(
      (conv18): Conv2d(512, 1024, kernel_size=(3, 3), stride=(1, 1), padding=(1, 1), bias=False)
      (bn18): BatchNorm2d(1024, eps=1e-05, momentum=0.1, affine=True, track_running_stats=True)
      (leaky18): LeakyReLU(negative_slope=0.1, inplace=True)
    )
    (23): Sequential(
      (conv19): Conv2d(1024, 1024, kernel_size=(3, 3), stride=(1, 1), padding=(1, 1), bias=False)
      (bn19): BatchNorm2d(1024, eps=1e-05, momentum=0.1, affine=True, track_running_stats=True)
      (leaky19): LeakyReLU(negative_slope=0.1, inplace=True)
    )
    (24): Sequential(
      (conv20): Conv2d(1024, 1024, kernel_size=(3, 3), stride=(1, 1), padding=(1, 1), bias=False)
      (bn20): BatchNorm2d(1024, eps=1e-05, momentum=0.1, affine=True, track_running_stats=True)
      (leaky20): LeakyReLU(negative_slope=0.1, inplace=True)
    )
    (25): EmptyModule()
    (26): Sequential(
      (conv21): Conv2d(512, 64, kernel_size=(1, 1), stride=(1, 1), bias=False)
      (bn21): BatchNorm2d(64, eps=1e-05, momentum=0.1, affine=True, track_running_stats=True)
      (leaky21): LeakyReLU(negative_slope=0.1, inplace=True)
    )
    (27): Reorg()
    (28): EmptyModule()
    (29): Sequential(
      (conv22): Conv2d(1280, 1024, kernel_size=(3, 3), stride=(1, 1), padding=(1, 1), bias=False)
      (bn22): BatchNorm2d(1024, eps=1e-05, momentum=0.1, affine=True, track_running_stats=True)
      (leaky22): LeakyReLU(negative_slope=0.1, inplace=True)
    )
    (30): Sequential(
      (conv23): Conv2d(1024, 125, kernel_size=(1, 1), stride=(1, 1))
    )
    (31): RegionLayer()
  )
)
[INFO] 2021-04-17 04:37:14 models.0.conv1.weight [3, 32, 3, 3]
[INFO] 2021-04-17 04:37:14 models.2.conv2.weight [32, 64, 3, 3]
[INFO] 2021-04-17 04:37:14 models.4.conv3.weight [64, 128, 3, 3]
[INFO] 2021-04-17 04:37:14 models.5.conv4.weight [128, 64, 1, 1]
[INFO] 2021-04-17 04:37:14 models.6.conv5.weight [64, 128, 3, 3]
…
